…
lance feature separation and reconstruction quality. By allowing controlled sharing of feature directions, the CFS-SAE achieves better interpretability without sacrificing performance. We evaluate the model on the sparse_probing and core benchmarks, demonstrating its effectiveness in improving interpretability while maintaining high reconstruction quality. The results suggest that controlled feature sharing is a promising approach for addressing polysemanticity in sparse autoencoders.', 'novel': True}]
Running 1 parallel processes
Gemma2DecoderLayer(
  (self_attn): Gemma2Attention(
    (q_proj): Linear(in_features=2304, out_features=2048, bias=False)
    (k_proj): Linear(in_features=2304, out_features=1024, bias=False)
    (v_proj): Linear(in_features=2304, out_features=1024, bias=False)
    (o_proj): Linear(in_features=2048, out_features=2304, bias=False)
    (rotary_emb): Gemma2RotaryEmbedding()
  )
  (mlp): Gemma2MLP(
    (gate_proj): Linear(in_features=2304, out_features=9216, bias=False)
    (up_proj): Linear(in_features=2304, out_features=9216, bias=False)
    (down_proj): Linear(in_features=9216, out_features=2304, bias=False)
    (act_fn): PytorchGELUTanh()
  )
  (input_layernorm): Gemma2RMSNorm((2304,), eps=1e-06)
  (post_attention_layernorm): Gemma2RMSNorm((2304,), eps=1e-06)
  (pre_feedforward_layernorm): Gemma2RMSNorm((2304,), eps=1e-06)
  (post_feedforward_layernorm): Gemma2RMSNorm((2304,), eps=1e-06)
)
Gemma2DecoderLayer(
  (self_attn): Gemma2Attention(
    (q_proj): Linear(in_features=2304, out_features=2048, bias=False)
    (k_proj): Linear(in_features=2304, out_features=1024, bias=False)
    (v_proj): Linear(in_features=2304, out_features=1024, bias=False)
    (o_proj): Linear(in_features=2048, out_features=2304, bias=False)
    (rotary_emb): Gemma2RotaryEmbedding()
  )
  (mlp): Gemma2MLP(
    (gate_proj): Linear(in_features=2304, out_features=9216, bias=False)
    (up_proj): Linear(in_features=2304, out_features=9216, bias=False)
    (down_proj): Linear(in_features=9216, out_features=2304, bias=False)
    (act_fn): PytorchGELUTanh()
  )
  (input_layernorm): Gemma2RMSNorm((2304,), eps=1e-06)
  (post_attention_layernorm): Gemma2RMSNorm((2304,), eps=1e-06)
  (pre_feedforward_layernorm): Gemma2RMSNorm((2304,), eps=1e-06)
  (post_feedforward_layernorm): Gemma2RMSNorm((2304,), eps=1e-06)
)
Error at step 0: Above exception when execution Node: 'getitem_0' in Graph: '22951375737232'
Gemma2DecoderLayer(
  (self_attn): Gemma2Attention(
    (q_proj): Linear(in_features=2304, out_features=2048, bias=False)
    (k_proj): Linear(in_features=2304, out_features=1024, bias=False)
    (v_proj): Linear(in_features=2304, out_features=1024, bias=False)
    (o_proj): Linear(in_features=2048, out_features=2304, bias=False)
    (rotary_emb): Gemma2RotaryEmbedding()
  )
  (mlp): Gemma2MLP(
    (gate_proj): Linear(in_features=2304, out_features=9216, bias=False)
    (up_proj): Linear(in_features=2304, out_features=9216, bias=False)
    (down_proj): Linear(in_features=9216, out_features=2304, bias=False)
    (act_fn): PytorchGELUTanh()
  )
  (input_layernorm): Gemma2RMSNorm((2304,), eps=1e-06)
  (post_attention_layernorm): Gemma2RMSNorm((2304,), eps=1e-06)
  (pre_feedforward_layernorm): Gemma2RMSNorm((2304,), eps=1e-06)
  (post_feedforward_layernorm): Gemma2RMSNorm((2304,), eps=1e-06)
)
Error at step 0: Above exception when execution Node: 'getitem_0' in Graph: '22951484552976'
Gemma2DecoderLayer(
  (self_attn): Gemma2Attention(
    (q_proj): Linear(in_features=2304, out_features=2048, bias=False)
    (k_proj): Linear(in_features=2304, out_features=1024, bias=False)
    (v_proj): Linear(in_features=2304, out_features=1024, bias=False)
    (o_proj): Linear(in_features=2048, out_features=2304, bias=False)
    (rotary_emb): Gemma2RotaryEmbedding()
  )
  (mlp): Gemma2MLP(
    (gate_proj): Linear(in_features=2304, out_features=9216, bias=False)
    (up_proj): Linear(in_features=2304, out_features=9216, bias=False)
    (down_proj): Linear(in_features=9216, out_features=2304, bias=False)
    (act_fn): PytorchGELUTanh()
  )
  (input_layernorm): Gemma2RMSNorm((2304,), eps=1e-06)
  (post_attention_layernorm): Gemma2RMSNorm((2304,), eps=1e-06)
  (pre_feedforward_layernorm): Gemma2RMSNorm((2304,), eps=1e-06)
  (post_feedforward_layernorm): Gemma2RMSNorm((2304,), eps=1e-06)
)
Error at step 0: Above exception when execution Node: 'getitem_0' in Graph: '22951483698512'
…
Num non-zero elements: 20
Test accuracy for 2: 0.5
Num non-zero elements: 20
Test accuracy for 6: 0.5
Num non-zero elements: 20
Test accuracy for 9: 0.5
Num non-zero elements: 50
Test accuracy for 0: 0.5
Num non-zero elements: 50
Test accuracy for 1: 0.5
Num non-zero elements: 50
Test accuracy for 2: 0.5
Num non-zero elements: 50
Test accuracy for 6: 0.5
Num non-zero elements: 50
Test accuracy for 9: 0.5
Loading activations from artifacts/sparse_probing/google/gemma-2-2b/blocks.5.hook_resid_post/LabHC_bias_in_bios_class_set2_activations.pt
Gemma2DecoderLayer(
  (self_attn): Gemma2Attention(
    (q_proj): Linear(in_features=2304, out_features=2048, bias=False)
    (k_proj): Linear(in_features=2304, out_features=1024, bias=False)
    (v_proj): Linear(in_features=2304, out_features=1024, bias=False)
    (o_proj): Linear(in_features=2048, out_features=2304, bias=False)
    (rotary_emb): Gemma2RotaryEmbedding()
  )
  (mlp): Gemma2MLP(
    (gate_proj): Linear(in_features=2304, out_features=9216, bias=False)
    (up_proj): Linear(in_features=2304, out_features=9216, bias=False)
    (down_proj): Linear(in_features=9216, out_features=2304, bias=False)
    (act_fn): PytorchGELUTanh()
  )
  (input_layernorm): Gemma2RMSNorm((2304,), eps=1e-06)
  (post_attention_layernorm): Gemma2RMSNorm((2304,), eps=1e-06)
  (pre_feedforward_layernorm): Gemma2RMSNorm((2304,), eps=1e-06)
  (post_feedforward_layernorm): Gemma2RMSNorm((2304,), eps=1e-06)
)
Error at step 0: Above exception when execution Node: 'getitem_0' in Graph: '23066363583376'
Gemma2DecoderLayer(
  (self_attn): Gemma2Attention(
    (q_proj): Linear(in_features=2304, out_features=2048, bias=False)
    (k_proj): Linear(in_features=2304, out_features=1024, bias=False)
    (v_proj): Linear(in_features=2304, out_features=1024, bias=False)
    (o_proj): Linear(in_features=2048, out_features=2304, bias=False)
    (rotary_emb): Gemma2RotaryEmbedding()
  )
  (mlp): Gemma2MLP(
    (gate_proj): Linear(in_features=2304, out_features=9216, bias=False)
    (up_proj): Linear(in_features=2304, out_features=9216, bias=False)
    (down_proj): Linear(in_features=9216, out_features=2304, bias=False)
    (act_fn): PytorchGELUTanh()
  )
  (input_layernorm): Gemma2RMSNorm((2304,), eps=1e-06)
  (post_attention_layernorm): Gemma2RMSNorm((2304,), eps=1e-06)
  (pre_feedforward_layernorm): Gemma2RMSNorm((2304,), eps=1e-06)
  (post_feedforward_layernorm): Gemma2RMSNorm((2304,), eps=1e-06)
)
Error at step 0: Above exception when execution Node: 'getitem_0' in Graph: '22651333839120'
Gemma2DecoderLayer(
  (self_attn): Gemma2Attention(
    (q_proj): Linear(in_features=2304, out_features=2048, bias=False)
    (k_proj): Linear(in_features=2304, out_features=1024, bias=False)
    (v_proj): Linear(in_features=2304, out_features=1024, bias=False)
    (o_proj): Linear(in_features=2048, out_features=2304, bias=False)
    (rotary_emb): Gemma2RotaryEmbedding()
  )
  (mlp): Gemma2MLP(
    (gate_proj): Linear(in_features=2304, out_features=9216, bias=False)
    (up_proj): Linear(in_features=2304, out_features=9216, bias=False)
    (down_proj): Linear(in_features=9216, out_features=2304, bias=False)
    (act_fn): PytorchGELUTanh()
  )
  (input_layernorm): Gemma2RMSNorm((2304,), eps=1e-06)
  (post_attention_layernorm): Gemma2RMSNorm((2304,), eps=1e-06)
  (pre_feedforward_layernorm): Gemma2RMSNorm((2304,), eps=1e-06)
  (post_feedforward_layernorm): Gemma2RMSNorm((2304,), eps=1e-06)
)
Error at step 0: Above exception when execution Node: 'getitem_0' in Graph: '22845380223184'
Gemma2DecoderLayer(
  (self_attn): Gemma2Attention(
    (q_proj): Linear(in_features=2304, out_features=2048, bias=False)
    (k_proj): Linear(in_features=2304, out_features=1024, bias=False)
    (v_proj): Linear(in_features=2304, out_features=1024, bias=False)
    (o_proj): Linear(in_features=2048, out_features=2304, bias=False)
    (rotary_emb): Gemma2RotaryEmbedding()
  )
  (mlp): Gemma2MLP(
    (gate_proj): Linear(in_features=2304, out_features=9216, bias=False)
    (up_proj): Linear(in_features=2304, out_features=9216, bias=False)
    (down_proj): Linear(in_features=9216, out_features=2304, bias=False)
    (act_fn): PytorchGELUTanh()
  )
  (input_layernorm): Gemma2RMSNorm((2304,), eps=1e-06)
  (post_attention_layernorm): Gemma2RMSNorm((2304,), eps=1e-06)
  (pre_feedforward_layernorm): Gemma2RMSNorm((2304,), eps=1e-06)
  (post_feedforward_layernorm): Gemma2RMSNorm((2304,), eps=1e-06)
)
Error at step 0: Above exception when execution Node: 'getitem_0' in Graph: '22846648565264'
Gemma2DecoderLayer(
  (self_attn): Gemma2Attention(
    (q_proj): Linear(in_features=2304, out_features=2048, bias=False)
    (k_proj): Linear(in_features=2304, out_features=1024, bias=False)
    (v_proj): Linear(in_features=2304, out_features=1024, bias=False)
    (o_proj): Linear(in_features=2048, out_features=2304, bias=False)
    (rotary_emb): Gemma2RotaryEmbedding()
  )
  (mlp): Gemma2MLP(
    (gate_proj): Linear(in_features=2304, out_features=9216, bias=False)
    (up_proj): Linear(in_features=2304, out_features=9216, bias=False)
    (down_proj): Linear(in_features=9216, out_features=2304, bias=False)
    (act_fn): PytorchGELUTanh()
  )
  (input_layernorm): Gemma2RMSNorm((2304,), eps=1e-06)
  (post_attention_layernorm): Gemma2RMSNorm((2304,), eps=1e-06)
  (pre_feedforward_layernorm): Gemma2RMSNorm((2304,), eps=1e-06)
  (post_feedforward_layernorm): Gemma2RMSNorm((2304,), eps=1e-06)
)
Error at step 0: Above exception when execution Node: 'getitem_0' in Graph: '22845368538960'
…
Num non-zero elements: 20
Test accuracy for 2: 0.5
Num non-zero elements: 20
Test accuracy for 6: 0.5
Num non-zero elements: 20
Test accuracy for 9: 0.5
Num non-zero elements: 50
Test accuracy for 0: 0.5
Num non-zero elements: 50
Test accuracy for 1: 0.5
Num non-zero elements: 50
Test accuracy for 2: 0.5
Num non-zero elements: 50
Test accuracy for 6: 0.5
Num non-zero elements: 50
Test accuracy for 9: 0.5
Loading activations from artifacts/sparse_probing/google/gemma-2-2b/blocks.5.hook_resid_post/LabHC_bias_in_bios_class_set2_activations.pt
Gemma2DecoderLayer(
  (self_attn): Gemma2Attention(
    (q_proj): Linear(in_features=2304, out_features=2048, bias=False)
    (k_proj): Linear(in_features=2304, out_features=1024, bias=False)
    (v_proj): Linear(in_features=2304, out_features=1024, bias=False)
    (o_proj): Linear(in_features=2048, out_features=2304, bias=False)
    (rotary_emb): Gemma2RotaryEmbedding()
  )
  (mlp): Gemma2MLP(
    (gate_proj): Linear(in_features=2304, out_features=9216, bias=False)
    (up_proj): Linear(in_features=2304, out_features=9216, bias=False)
    (down_proj): Linear(in_features=9216, out_features=2304, bias=False)
    (act_fn): PytorchGELUTanh()
  )
  (input_layernorm): Gemma2RMSNorm((2304,), eps=1e-06)
  (post_attention_layernorm): Gemma2RMSNorm((2304,), eps=1e-06)
  (pre_feedforward_layernorm): Gemma2RMSNorm((2304,), eps=1e-06)
  (post_feedforward_layernorm): Gemma2RMSNorm((2304,), eps=1e-06)
)
Error at step 0: Above exception when execution Node: 'getitem_0' in Graph: '22646378843088'
Gemma2DecoderLayer(
  (self_attn): Gemma2Attention(
    (q_proj): Linear(in_features=2304, out_features=2048, bias=False)
    (k_proj): Linear(in_features=2304, out_features=1024, bias=False)
    (v_proj): Linear(in_features=2304, out_features=1024, bias=False)
    (o_proj): Linear(in_features=2048, out_features=2304, bias=False)
    (rotary_emb): Gemma2RotaryEmbedding()
  )
  (mlp): Gemma2MLP(
    (gate_proj): Linear(in_features=2304, out_features=9216, bias=False)
    (up_proj): Linear(in_features=2304, out_features=9216, bias=False)
    (down_proj): Linear(in_features=9216, out_features=2304, bias=False)
    (act_fn): PytorchGELUTanh()
  )
  (input_layernorm): Gemma2RMSNorm((2304,), eps=1e-06)
  (post_attention_layernorm): Gemma2RMSNorm((2304,), eps=1e-06)
  (pre_feedforward_layernorm): Gemma2RMSNorm((2304,), eps=1e-06)
  (post_feedforward_layernorm): Gemma2RMSNorm((2304,), eps=1e-06)
)
Error at step 0: Above exception when execution Node: 'getitem_0' in Graph: '22644612755920'
Gemma2DecoderLayer(
  (self_attn): Gemma2Attention(
    (q_proj): Linear(in_features=2304, out_features=2048, bias=False)
    (k_proj): Linear(in_features=2304, out_features=1024, bias=False)
    (v_proj): Linear(in_features=2304, out_features=1024, bias=False)
    (o_proj): Linear(in_features=2048, out_features=2304, bias=False)
    (rotary_emb): Gemma2RotaryEmbedding()
  )
  (mlp): Gemma2MLP(
    (gate_proj): Linear(in_features=2304, out_features=9216, bias=False)
    (up_proj): Linear(in_features=2304, out_features=9216, bias=False)
    (down_proj): Linear(in_features=9216, out_features=2304, bias=False)
    (act_fn): PytorchGELUTanh()
  )
  (input_layernorm): Gemma2RMSNorm((2304,), eps=1e-06)
  (post_attention_layernorm): Gemma2RMSNorm((2304,), eps=1e-06)
  (pre_feedforward_layernorm): Gemma2RMSNorm((2304,), eps=1e-06)
  (post_feedforward_layernorm): Gemma2RMSNorm((2304,), eps=1e-06)
)
Error at step 0: Above exception when execution Node: 'getitem_0' in Graph: '22646504539344'
…
Num non-zero elements: 20
Test accuracy for 2: 0.5
Num non-zero elements: 20
Test accuracy for 6: 0.5
Num non-zero elements: 20
Test accuracy for 9: 0.5
Num non-zero elements: 50
Test accuracy for 0: 0.5
Num non-zero elements: 50
Test accuracy for 1: 0.5
Num non-zero elements: 50
Test accuracy for 2: 0.5
Num non-zero elements: 50
Test accuracy for 6: 0.5
Num non-zero elements: 50
Test accuracy for 9: 0.5
Loading activations from artifacts/sparse_probing/google/gemma-2-2b/blocks.5.hook_resid_post/LabHC_bias_in_bios_class_set2_activations.pt
Gemma2DecoderLayer(
  (self_attn): Gemma2Attention(
    (q_proj): Linear(in_features=2304, out_features=2048, bias=False)
    (k_proj): Linear(in_features=2304, out_features=1024, bias=False)
    (v_proj): Linear(in_features=2304, out_features=1024, bias=False)
    (o_proj): Linear(in_features=2048, out_features=2304, bias=False)
    (rotary_emb): Gemma2RotaryEmbedding()
  )
  (mlp): Gemma2MLP(
    (gate_proj): Linear(in_features=2304, out_features=9216, bias=False)
    (up_proj): Linear(in_features=2304, out_features=9216, bias=False)
    (down_proj): Linear(in_features=9216, out_features=2304, bias=False)
    (act_fn): PytorchGELUTanh()
  )
  (input_layernorm): Gemma2RMSNorm((2304,), eps=1e-06)
  (post_attention_layernorm): Gemma2RMSNorm((2304,), eps=1e-06)
  (pre_feedforward_layernorm): Gemma2RMSNorm((2304,), eps=1e-06)
  (post_feedforward_layernorm): Gemma2RMSNorm((2304,), eps=1e-06)
)
Worker 0 started.
Completed idea: soft_orthogonal_sae, Success: False
…
